DLM/model/LeNetModel.pth (torch, 667079 bytes, 10 tensors)

net.0.weight f4 [8, 1, 3, 3]
000000 8f 63 11 3f 16 1b a0 3d 81 9b 21 bf a0 ab 94 3e
       0.5679254 0.07817666 -0.63127905 0.2903719
000010 07 79 0b 3f dd 31 28 bf 57 5d b7 3e 82 c3 17 3f
       0.5448155 -0.65701085 0.358134 0.59282696
000020 66 c9 08 bd bd 4b c9 be b4 f7 29 bf 1e 98 2d bf
       -0.033395194 -0.39315596 -0.6639359 -0.6781024
000030 45 bb 0c bf 50 19 54 bf 47 cd 85 bf 9f 47 e1 3e
       -0.5497325 -0.82851124 -1.0453271 0.43999955
000040 ee 8e aa be f3 e1 cd be 94 d6 18 3f 18 59 f0 3e
       -0.33312172 -0.40211448 0.5970242 0.46942973
000050 f2 da 06 3f 05 81 0a 3e 22 2f 2b ba f5 1d b5 3e
       0.52677834 0.1352578 -0.00065301557 0.35374418
000060 42 5e 8c be 76 26 a5 be 0c 49 50 3e 41 39 f9 3e
       -0.27415663 -0.32255906 0.20340365 0.48676494
000070 03 8c 33 3f 09 61 d5 3d 21 d4 81 3f f6 62 17 3e
       0.70135516 0.104188986 1.0142862 0.14783844
000080 24 cb dd bd b5 cc 0a 3e 8f df f3 bd 19 63 92 be
       -0.108297616 0.13554652 -0.11907875 -0.2859123
000090 90 2f f9 3e 0d 66 fb be 71 09 a5 bb 79 bf 1f 3c
       0.486691 -0.49101296 -0.005036526 0.0097502405
0000a0 98 1e 44 bf ec 76 c0 3d fd 3a 26 3f f7 bc 9c be
       -0.7660918 0.093976825 0.6493376 -0.3061292
0000b0 df e0 19 be 48 85 3c bf 55 b1 a1 3e 1a 9a eb 3e
       -0.15027188 -0.7364087 0.31580606 0.46016008
0000c0 e7 4f a7 bf a8 28 4f 3f e4 71 04 3f 55 0d 86 bf
       -1.3071259 0.8092141 0.51736283 -1.0472819
0000d0 5a 52 43 3f fb cb 9a 3e df 53 8f be 72 f6 e7 3d
       0.76297534 0.3023375 -0.27993676 0.113263026
0000e0 8c f4 f8 3d 11 0c ac be 60 35 67 bd 8c cb e3 bd
       0.121560186 -0.33602956 -0.056447387 -0.11122808
0000f0 01 8e f7 3e d8 61 bb 3d 72 f9 73 bd 02 f4 df 3d
       0.48350528 0.091495216 -0.05956406 0.10935213
000100 5a ad d2 3e 0b 05 27 3e cb dc 0b 3f 7a 5c 4f 3f
       0.41147882 0.16310517 0.5463378 0.81000483
000110 a6 16 f3 3e fb 7e 9c 3e 74 81 01 3f 12 b6 ba 3e
       0.47478217 0.30565628 0.50588155 0.36467034

net.0.bias f4 [8]
000000 fc c7 9e bd ae 75 27 3f 3d bc 02 3b 7a 20 08 ba
       -0.07752988 0.6541394 0.0019948625 -0.00051928277
000010 7a 05 e9 3e 24 7d a3 3b e0 5f 7b bc 36 44 11 bc
       0.4551199 0.004989283 -0.015342683 -0.00886636

net.3.weight f4 [16, 8, 3, 3]
000000 b8 32 a4 3d b6 5f c0 bc 51 57 84 3e 39 79 15 3c
       0.08017486 -0.023483139 0.25847867 0.00912314
000010 b3 ba 42 be 31 83 12 be 2d 0e 96 3d 39 65 e8 bb
       -0.19016533 -0.14307858 0.073269226 -0.007092145
000020 36 cc fa be d1 f2 6b 3a f5 f4 8d be 32 f7 39 be
       -0.48983926 0.0009000721 -0.2772595 -0.18160704
000030 cb 06 24 bd 2b 66 ae 3d f8 35 2e 3d 13 a1 ed bc
       -0.04004554 0.08515581 0.042531937 -0.02900747
000040 6e f6 c3 3e 6b 83 a2 3e 7e 36 b6 bb fa 32 87 3e
       0.38273948 0.3174089 -0.005560695 0.2640608
000050 72 36 b2 3e 04 54 69 bc 80 df a4 3d 54 0c a9 3e
       0.34807163 -0.014241222 0.08050442 0.33017218
000060 80 b7 9f bd 80 58 7a be 52 cc 19 be 6d 93 f6 bc
       -0.07798672 -0.24447823 -0.15019348 -0.030099595
000070 77 20 ac 3d 7c 36 f3 3e fe 13 cc bc 25 6a 7a 3c
       0.0840463 0.47502506 -0.024911877 0.015284096
000080 f4 d5 c8 3e dd 8b 7b ba dd 52 71 3d 4f b8 84 be
       0.39225733 -0.00095957314 0.058916915 -0.25921866
000090 18 b8 bc bd 35 29 40 bd b2 77 e4 bd 9b 3e 7f 3d
       -0.092148006 -0.046914298 -0.111556426 0.062315565
0000a0 ff 1b dd 3d 5a 0e 77 be 72 55 ea 3c 28 aa 19 3c
       0.107963555 -0.24126568 0.028605197 0.009378947
0000b0 15 e9 e6 3d 4f d4 8f 3d a3 5b 3d 3e 3a 48 be bc
       0.112749256 0.070229165 0.18491988 -0.0232278
0000c0 06 84 f2 bd 38 f2 2a 3d cd 20 24 be 73 83 4c 3e
       -0.11841588 0.041734904 -0.16028138 0.19972019
0000d0 4f fd 6a be 62 af 32 be aa b7 27 3e b3 79 b8 3d
       -0.22948192 -0.17449716 0.16378656 0.09007587
0000e0 f6 8b 3c bd f1 72 28 3d 41 45 4d bc 3f 02 cf bd
       -0.046031915 0.04112524 -0.012528718 -0.1010785
0000f0 4b 13 0a 3e fe bd 21 3e 13 d6 52 3e 97 75 8e be
       0.13483922 0.15795133 0.20589475 -0.2782409
000100 1a 15 9d 3d bc 65 10 3f 03 43 06 3e 7e 7e b7 3d
       0.076700404 0.56405234 0.131115 0.08959673
000110 f3 43 11 3d ad 2c 56 3e c0 2a c8 be c4 1e 48 bf
       0.035465192 0.2091548 -0.39095116 -0.78171945
000120 fb 63 fd 3d 70 76 1a be f5 68 32 3e bd 49 35 3e
       0.123725854 -0.15084243 0.1742285 0.1770391
000130 ff 9b a4 3d 7c 03 65 3e ae ab d5 3d d1 c5 c9 bd
       0.080375664 0.2236461 0.10433136 -0.098521836
000140 d0 b8 53 be 4b ba 5c 3e 96 98 7c bd b8 56 2d be
       -0.20675969 0.2155544 -0.061668955 -0.16927612
000150 7e eb a2 bb 44 c9 c0 3d 1d a1 e2 bd 24 d7 a8 3d
       -0.0049719205 0.09413388 -0.11065886 0.0824416
000160 b3 4e bc 3d ee 61 0d be d5 8f 51 be 1a 3f 90 3e
       0.09194698 -0.13806888 -0.20465024 0.28173143
000170 73 e9 0b bd 56 aa 80 bd 51 d9 69 3d 07 37 ab 3d
       -0.03415818 -0.06282489 0.057092015 0.08360105
000180 04 59 be 3d a3 93 d8 3c 76 ba 6f bd 77 6d c7 3c
       0.09294322 0.026437586 -0.058527432 0.02434419
000190 d2 bc 77 3e 42 11 90 3e 66 45 15 3e 75 14 81 bd
       0.24193123 0.28138167 0.14577255 -0.0630273
0001a0 86 23 ad 3c 78 a5 54 bd 4b 68 21 be c7 6d 3c be
       0.021135103 -0.051915616 -0.15762441 -0.18401252
0001b0 5d 97 1c 3e ab d9 f2 3a 4e 49 3d 3d ba 30 04 3d
       0.15292116 0.0018528005 0.046212487 0.03227303
0001c0 b2 9f 17 3e 22 e9 af bd 4f 17 96 3c 82 dd da bd
       0.14807013 -0.085893884 0.018321661 -0.106867805
0001d0 65 14 a0 be e9 2e c0 3e 66 2d 14 3f 7d 9e 0a b9
       -0.3126556 0.3753579 0.5788177 -0.00013219747
0001e0 9e 20 b0 bc a3 c9 2b 3e 2c a0 87 3e 79 bd 72 3e
       -0.021499928 0.16776137 0.2648939 0.2370509
0001f0 d9 2c 8c bd 57 3c 46 3e 7d ae f2 3d a6 b6 6a bd
       -0.068444915 0.19358955 0.11849687 -0.057303093
000200 0d cb a4 3c 5f b1 b5 3d 26 10 b9 3d ae 89 19 3c
       0.020116353 0.088717215 0.09036283 0.009371204
000210 d5 36 30 3e 37 39 f5 3d ca ae d2 bc 74 21 8d be
       0.17208417 0.119738035 -0.025718112 -0.27564585
000220 45 44 31 3e 79 3a 15 3d 06 bc d1 bd e4 cb 1e be
       0.17311199 0.036432717 -0.10240941 -0.15507466
000230 fb 1c 04 bc 8b 8e e2 3d 17 29 76 bd 3a 5d 31 3d
       -0.00806355 0.11062344 -0.06009778 0.0433018
000240 2a 4d 1c bc 5c df 86 bd 4f 6d 4c be 08 b3 07 3e
       -0.009539882 -0.06585571 -0.19963573 0.13251889
000250 52 aa ce bd 53 03 8d bd 2a 02 44 be fc 23 b2 3c
       -0.1009108 -0.068854 -0.1914145 0.021745674
000260 3e c8 2d bd f1 a6 0e 3d ec 52 cb 3d c5 17 91 3c
       -0.042427294 0.034827176 0.099279255 0.01771153
000270 b9 ab 4c 3d fc b1 92 3c c2 f8 81 bc 35 07 df bd
       0.049968455 0.017907135 -0.015865687 -0.108900465
000280 f2 96 e8 3c ad 00 04 be 5a 60 6c 3a f1 b0 8e 3d
       0.028392289 -0.12890883 0.0009017043 0.06967343
000290 fd f7 16 be 82 1c 38 3e e3 5d 65 3e 92 00 6a 3e
       -0.14743038 0.17979625 0.22399096 0.2285178
0002a0 1c 8f 7a 3e b6 4d b3 3c 08 ef 50 bd 80 ef 0e be
       0.24468654 0.021887641 -0.051009208 -0.1395855
0002b0 66 99 b3 bd e5 4d 26 bd cb 09 3e bc cf e8 ed 3d
       -0.08769493 -0.04060163 -0.0115990145 0.1161667
0002c0 d2 dd 5b 3e bc 95 e3 3d 61 87 b7 bd bc 47 2f be
       0.21471336 0.11112544 -0.08961368 -0.17117208
0002d0 ef 63 e4 bd f1 85 d1 bd d5 2e 10 3e 92 e1 50 ba
       -0.11151873 -0.102306254 0.14080365 -0.0007968183
0002e0 0d 82 0f be 64 12 85 3c b3 b1 ba bd a5 97 05 3e
       -0.14014454 0.01624412 -0.09115925 0.13046129
0002f0 8c 35 ff 3d 2d b7 38 3d 35 1b 63 be c0 7e de bd
       0.12461385 0.045096565 -0.22178347 -0.108640194
000300 8f a9 2c be a5 58 53 be b8 d9 8e bd 74 4d 25 bb
       -0.16861556 -0.20639284 -0.0697512 -0.0025223168
000310 7f 0a f6 bd 42 1b 57 3e c9 04 f9 3d e6 49 0a be
       -0.12013721 0.21006492 0.12159116 -0.13504753
000320 18 38 68 3d a3 a0 d7 bd 8d c1 fd 3c 2d f4 28 be
       0.05669412 -0.10528686 0.030976081 -0.16499396
000330 d1 ec f6 3d d3 50 00 be 06 3e 39 3e a4 df df 3d
       0.12056888 -0.12530832 0.18090066 0.10931328
000340 fe 89 d8 bd 9c 01 3b 3e 9b fd 6b 3e 93 c4 1d 3b
       -0.10573195 0.18262333 0.23045962 0.0024073466
000350 47 5b 9b 3e 08 a9 a1 be d5 21 a8 be 87 09 91 be
       0.30343077 -0.31574273 -0.32838312 -0.2832758
000360 d1 a2 3e 3c 3a de 41 be 3d 46 4a 3e 1d 5e 51 be
       0.011635498 -0.18932429 0.19753356 -0.20446058
000370 19 91 2f bd 13 5b 5c 3e 57 c7 4d bd f9 47 9f be
       -0.042862985 0.21519117 -0.050238933 -0.31109598
000380 21 dd 01 3e e3 fc 26 be 9a a9 2b be 26 67 37 3e
       0.1268201 -0.16307406 -0.16763917 0.17910442
000390 13 97 89 be f4 15 bc bd f0 8c 9b 3d 61 45 bc bd
       -0.26873073 -0.09183875 0.07595241 -0.091929205
0003a0 cc 4f d2 3d a8 24 97 3e 74 aa 76 be a7 d7 2a be
       0.10269126 0.29520154 -0.2408846 -0.16683827
0003b0 5c da 32 be e6 fc 48 be 9b 34 33 3e c3 ac 96 bd
       -0.1746611 -0.19627723 0.17500536 -0.073571704
0003c0 6e 00 02 3e 2c 5b ed 3b 94 31 e4 3c 3e 90 a8 be
       0.12695476 0.0072435346 0.027855672 -0.32922548
0003d0 a0 01 dc bd 05 bc 1a 3e 42 db 4f 3d 3a 2e 6c 3e
       -0.107424974 0.15110786 0.05074621 0.23064509
0003e0 cb 74 01 3e 4d cc 9f 3e cb 50 85 3e 6a d9 fb ba
       0.12642209 0.31210557 0.26038203 -0.0019214575
0003f0 24 d0 37 be 35 09 0b bd cb f1 fc 3d 08 2b 20 be
       -0.17950493 -0.033944327 0.12350806 -0.15641415

net.3.bias f4 [16]
000000 cf 2e fd bd 82 3a 54 be d6 1c e6 bc 1d fd fb 3d
       -0.12362444 -0.20725444 -0.028089922 0.12304137
000010 9f 90 4d 3e 3c 68 9a bd ce 94 2d 3d 46 af 6b 3e
       0.200747 -0.075394124 0.04237824 0.2301608
000020 4a 74 6b be 38 13 bb 3d 34 2a 16 bd c8 0b 84 3e
       -0.2299358 0.09134525 -0.03666134 0.25790238
000030 42 4d 7c 3d af 81 d7 bd ff 1a 6f be d7 d1 72 be
       0.061597116 -0.10522782 -0.23350142 -0.2371286

net.7.weight f4 [256, 576]
000000 78 a7 a4 bc d9 d5 57 bd b4 2d a2 bd 8d 9f 80 3d
       -0.020099387 -0.052694175 -0.079188734 0.06280432
000010 c3 dc fa bc 4f 10 0b bc ff 39 b1 3d e9 6c 8a bd
       -0.030622846 -0.008487775 0.0865364 -0.06759054
000020 f9 c2 4c bd 06 8e 41 bb 2f 0e 78 3d 8f 6e 7a 3d
       -0.049990628 -0.0029534115 0.0605604 0.061140593
000030 34 98 23 3d d0 eb 84 3b cf e0 8c bd b1 51 7c bd
       0.039940074 0.0040564314 -0.06878816 -0.061601344
000040 e3 d1 56 3d 86 bc 52 bd a7 5d 15 3c 29 2c 52 bd
       0.052446257 -0.05144932 0.009116567 -0.051311646
000050 2b 7f 2b 3d 08 7e 56 3d bf dd 69 bc 6f 0a 10 3d
       0.041869324 0.052366287 -0.01427406 0.0351662
000060 51 31 83 3d 8b e9 41 3c 3c 08 75 3d 12 b1 5e bd
       0.06405891 0.011835466 0.059822306 -0.054368086
000070 ea cc fa bc bd 04 b7 3d 65 f7 9f bc 55 16 b5 bc
       -0.030615289 0.08936451 -0.019527147 -0.022105375
000080 6c a8 93 3c 55 25 8f 3d 75 2f 35 bd 48 43 88 3d
       0.018024646 0.069895424 -0.04423471 0.06653458
000090 f8 9a 8a bd 54 c0 fc ba 15 d8 85 bd f1 59 12 bd
       -0.06767839 -0.0019283392 -0.06535355 -0.035730306
0000a0 3e 31 04 3d ca 13 d9 bc 54 22 2b bd 28 3e 48 bd
       0.032273524 -0.026498694 -0.041780785 -0.0488874
0000b0 30 4c c8 bd cb ff 89 bd a1 3b 0d 3d 9a 9f 4b 3d
       -0.097801566 -0.06738242 0.034480695 0.049712755
0000c0 3a a2 7a bd 57 70 72 3d 9b 16 a2 bc 76 90 99 bc
       -0.061189868 0.059189167 -0.01978617 -0.018745642
0000d0 45 6f e6 3d 3b aa 02 3c a5 d7 0d bd 18 ee 7e bc
       0.11251692 0.007975156 -0.034629483 -0.015559696
0000e0 b3 7f 86 3d 91 d9 9b bb 24 da a5 3b 32 6d 51 bc
       0.065673254 -0.0047561605 0.005061405 -0.012782382
0000f0 38 1f fd 3c 7d 39 88 3d cd d6 34 3d f3 1b c2 bd
       0.030898675 0.0665159 0.044150162 -0.09477987
000100 24 f0 26 3d ed 91 91 3c f9 81 01 bd e3 c4 c8 3c
       0.04075636 0.017769778 -0.031618092 0.024507945
000110 88 f8 7d bd bb 8e 40 3d 15 7d d6 bd 1d d2 4c 3d
       -0.062004596 0.04701112 -0.10473076 0.050005067
000120 f9 f7 78 bc 88 4b 73 bd 55 6f 01 bb 30 20 28 3d
       -0.01519584 -0.059398204 -0.0019750197 0.04104632
000130 7d 43 b4 bc a8 8b 59 3d 09 07 ac 3d 49 18 90 bd
       -0.022004837 0.053111702 0.08399779 -0.07035882
000140 a3 eb a5 bd 0c 49 d6 bb f5 b5 7e 3d 50 0e 89 bc
       -0.08101585 -0.0065394696 0.062185246 -0.016730458
000150 5e c0 8e 3d 0d 93 a9 bd a9 ee df 3c bc e9 e6 bc
       0.06970285 -0.08280001 0.027335482 -0.028187625
000160 de 9b 25 bd 82 79 bc 3c 9e ad ac 3d 46 4c 63 bd
       -0.04043185 0.023007158 0.08431552 -0.055492662
000170 a3 ce 38 3c 23 2d 2b 3d 3c 53 90 bd 7f bc 90 bd
       0.011279735 0.041791093 -0.07047126 -0.07067203
000180 93 7c 8c 3d 21 2c 82 bd 5a 58 4f bc 15 10 6e bd
       0.06859698 -0.06356073 -0.012655342 -0.058120806
000190 6d f1 8a 3c 0c 7f 5f bd cb 1a 5a 3d 87 72 49 ba
       0.016960824 -0.05456452 0.053248208 -0.00076846074
0001a0 14 ce 47 bc 6e a0 0d bc f8 45 a6 bd 65 d3 66 bc
       -0.012195129 -0.008644206 -0.08118814 -0.014088486
0001b0 5b ec 7d 3d eb f2 63 3d 24 4a 98 3d e9 e6 a2 bc
       0.061992984 0.055651587 0.07436016 -0.019885497
0001c0 62 48 b7 bd ce c8 f8 3c 5d c6 6d bd bc 80 86 3d
       -0.08949353 0.030369189 -0.058050502 0.06567523
0001d0 a4 9a b5 3d 57 85 90 3d e4 54 24 3d d4 52 a3 3c
       0.08867386 0.070566826 0.04012002 0.019936956
0001e0 f2 57 af 3d 5b f2 8c 3d a6 46 68 3c dd 4b 8f 3d
       0.08561696 0.06882163 0.014177 0.06996892
0001f0 94 5a 05 3d a1 89 d2 bc 77 a2 41 3d 6e c6 fa 3c
       0.032557085 -0.025700392 0.04727408 0.030612197
000200 74 81 78 3d 5b b8 59 bb 50 49 d7 3c dd 62 70 3c
       0.06067033 -0.0033221457 0.026280075 0.014672008
000210 b5 7c 4f 3d 8d 90 36 3c ae bb 32 bd 94 2f 85 3d
       0.05065604 0.011142862 -0.043636017 0.065032154
000220 50 9e e6 3c bf d0 0c 3b 83 d7 9c bc db 22 25 3d
       0.028151661 0.0021486727 -0.019145733 0.040316444
000230 18 57 60 bc cd 0e c5 3c 59 a7 20 bd 20 64 53 bd
       -0.01369264 0.02405491 -0.039222095 -0.05160916
000240 65 37 e3 bd bd 11 75 3c c6 59 de bd 11 5f 10 bb
       -0.1109455 0.014957842 -0.10856967 -0.002202932
000250 33 c5 d0 bd ec 9a 40 bd ee 61 68 bc 96 e5 6c bd
       -0.10193863 -0.047022745 -0.0141835045 -0.057836138
000260 ec 99 a5 bd 8f 21 f1 bc c8 f2 c2 3d eb c9 8a bd
       -0.08085999 -0.029434947 0.09518963 -0.06776794
000270 de 04 54 bc d0 6b 81 bd 9b ce df bd b4 f1 81 bd
       -0.012940614 -0.06319392 -0.10928079 -0.06344929
000280 91 a6 0c bc 69 4c 01 3e 80 30 72 bd 02 e8 4e bc
       -0.008584634 0.12626804 -0.059128284 -0.012628557
000290 b7 59 60 3b db 7b 7b 3c 1f e8 20 3c 50 a1 40 bd
       0.0034233162 0.015349354 0.009820967 -0.04702884
0002a0 94 dc 12 bb a8 cb 0f bd 2d b8 aa 3b ca da ca bd
       -0.0022409307 -0.03510633 0.0052099437 -0.09905012
0002b0 f8 ba 18 3d 9d c7 fb ba 3d 95 e0 3b de 02 20 bd
       0.037287682 -0.001920927 0.006853728 -0.039065234
0002c0 9c d3 70 3c 45 5e fd 3c c8 8b b2 bc c8 ce aa bd
       0.014698889 0.03092874 -0.021795169 -0.08340222
0002d0 e4 de 70 3d e5 6f 82 3d 8d ef 12 3d 87 56 90 bd
       0.058806315 0.063689984 0.035872985 -0.07047754
0002e0 b5 8b b6 bb 6e f2 30 3c 51 11 06 3c a5 7b a3 bb
       -0.0055708536 0.010799987 0.0081828395 -0.004989105
0002f0 4d 49 ca bc e2 fc a5 3c 96 15 84 3d b7 6b 38 3d
       -0.024693156 0.020262185 0.0644943 0.0450246
000300 b4 d8 84 bd dc c7 53 3d 7c da 02 3d b4 36 3f bd
       -0.06486645 0.051704273 0.031946644 -0.04668303
000310 93 25 1c bd 3e 2d c1 3b a5 13 a8 3d e6 76 25 bd
       -0.03812177 0.005895286 0.08206872 -0.040396594
000320 24 52 10 3c 7c 96 02 3d 47 ff 12 3c d7 39 25 3c
       0.008808646 0.031881794 0.008971996 0.010084591
000330 84 c6 3c 3d 89 db 1d bd fe d8 88 3d 86 75 e6 3b
       0.046087757 -0.038539443 0.06682013 0.007033053
000340 57 27 2a bd f8 70 98 3c 1b 31 6c 3b a1 8e 8d bd
       -0.041541424 0.018608555 0.0036040011 -0.0691197
000350 7f 40 0a 3c 87 bb 14 3c 20 b2 af 3c 8f d2 69 bc
       0.008438229 0.009077913 0.021447241 -0.0142713925
000360 e1 66 5c 3c da b6 2b bd f2 7c 25 bd 78 91 89 bc
       0.013452263 -0.041922428 -0.04040236 -0.016792998
000370 06 b3 99 3d d1 57 0b bd 8d c9 73 3c 0a 92 a0 bd
       0.07504849 -0.034019295 0.014879596 -0.07840355
000380 a0 63 78 bd 15 70 88 3c 2d a9 e1 ba b2 33 fb 3b
       -0.060641885 0.016655007 -0.0017216556 0.0076660747
000390 ac 09 4d 3d c7 c0 d2 bc 3f 64 46 bd 9c a6 ee bb
       0.050058052 -0.025726689 -0.048435446 -0.007283045
0003a0 d5 60 41 bd 0e 91 18 3c fb 99 f2 bc 5b 26 67 bd
       -0.047211487 0.0093119275 -0.02961444 -0.056433063
0003b0 84 f3 53 bd 2d 06 41 bb 08 fa 8e bc 5b c0 2d 3d
       -0.051745906 -0.0029453144 -0.017453209 0.042419773
0003c0 c5 17 ca bc 8b 43 6e bd 27 b6 b8 bd fa 20 bb bd
       -0.024669537 -0.058169883 -0.09019118 -0.09137149
0003d0 cc 91 60 3d 82 12 84 bd 49 43 5f bd f3 f4 5a bd
       0.054826543 -0.064488426 -0.054507528 -0.053456258
0003e0 ae 5b 5c 3c 07 82 ac bd 44 38 90 3d d7 cf a1 bd
       0.0134495925 -0.08423238 0.07041982 -0.079009704
0003f0 ff 4f ab 3d 9e 27 24 3d 5f 2c 6a 3d 3f 30 45 3d
       0.083648674 0.040076844 0.05717122 0.048141714

net.7.bias f4 [256]
000000 5e 5b 77 bc db 68 98 3d 73 b5 41 bd ec 38 e2 39
       -0.015097467 0.074418746 -0.047292184 0.0004314849
000010 37 cb 18 3c e8 f1 3b bb 20 84 22 bd 4f ea ed 3c
       0.009325794 -0.0028678123 -0.039676785 0.029042391
000020 6e fd e8 bc 64 8a dc bb be a2 0f 3d 85 fe 1a 3c
       -0.028441157 -0.0067303646 0.035067312 0.009460096
000030 91 7b 0f 3d 13 f8 55 bc c1 66 48 3c 57 6f bb 3c
       0.03502995 -0.013059634 0.01223153 0.02288024
000040 9d b1 d5 3c a6 ff 1a bd 07 1b 9c 3d b7 6b 58 3c
       0.02608567 -0.03784146 0.076223426 0.013209275
000050 da e0 d1 3c 14 df ad 3b 3a 0a 29 3c c3 e0 c8 bb
       0.025619913 0.005306134 0.01031738 -0.0061303093
000060 27 0f 44 bd 04 0f cf 3a 87 7a 13 bd da f3 7e 3b
       -0.047866013 0.0015797322 -0.036005523 0.003890267
000070 3b e5 35 bc 6b 8f c0 3c 93 25 ae 3c ae cd a3 bb
       -0.011102016 0.023505887 0.021258151 -0.004998884
000080 07 53 e3 3c e5 b2 c7 bc 53 f6 b3 bc 5c 98 19 bd
       0.027749551 -0.024377296 -0.021968042 -0.037498817
000090 63 6e 00 3c 1a 31 7d 3b e3 99 08 bd d0 7b 44 3d
       0.007838818 0.0038634003 -0.033349883 0.04796964
0000a0 50 27 5f bc e1 75 04 bd b8 59 05 3d 80 89 d6 bc
       -0.013620213 -0.03233898 0.032556266 -0.026188612
0000b0 e9 28 6e 3c b6 ef ee 3c 74 8a 46 bb ff 84 cc bc
       0.014536121 0.029167037 -0.0030294927 -0.024965761
0000c0 df 36 d7 bc 8c 87 3c bc b2 fc 30 bd de e7 10 bd
       -0.026271282 -0.011506926 -0.04320974 -0.035377376
0000d0 8c a8 0b bd 5b be fa 3c 6a 17 c5 bc 0c 27 17 bd
       -0.034096286 0.030608347 -0.024059016 -0.036902472
0000e0 33 08 2c bd 42 7b 03 bd 31 d9 20 bd 4b 63 a8 bc
       -0.042000007 -0.03209997 -0.03926963 -0.02055516
0000f0 35 57 8e bc 91 16 93 3d a6 ba 26 3b cb 88 db bc
       -0.017375568 0.071820386 0.002544084 -0.026798626
000100 ef d1 a4 bc 43 b3 30 3d 6f f3 17 bc f3 9b 10 bd
       -0.020119635 0.043139707 -0.009274348 -0.035304975
000110 4c 2c 80 3d 3e d3 36 bc f0 fd f8 3c 2f 71 2f bc
       0.06258449 -0.0111587625 0.030394524 -0.010708137
000120 d5 73 fc 3c 77 96 a3 3c 00 92 ed bc 16 6c 26 3c
       0.030816952 0.019969208 -0.029000282 0.010157606
000130 cb e7 4c bb bc 79 d3 3b d1 2e 4e bd d0 8d 9d bc
       -0.003126609 0.006453721 -0.050337616 -0.01923266
000140 5d 5c 80 3b 00 0c 88 bc d7 f8 9d 3c 6f 55 64 3c
       0.0039172606 -0.016607285 0.019283695 0.013936385
000150 20 91 f6 3c 38 74 13 3c 5a 4d 7d bc 39 c2 2a bd
       0.030098498 0.008999877 -0.015460337 -0.04168913
000160 d2 04 bc 3c 33 4e e0 bc 8c 54 38 bc 84 2a b7 bb
       0.022951517 -0.027381038 -0.011250626 -0.005589785
000170 c3 b5 80 bc 89 57 36 bd 95 a3 07 bd 53 5f 09 bb
       -0.01571167 -0.044517074 -0.03311499 -0.0020961359
000180 df 64 89 bb 6a 94 07 bd c0 19 63 3c 79 25 a5 b9
       -0.004192933 -0.033100523 0.01386112 -0.00031499172
000190 61 84 a7 3c bf fe 62 ba 67 8e bf bc 9b 98 f7 3c
       0.020448865 -0.0008659176 -0.023383332 0.030224135
0001a0 3a 78 f2 3c ea 61 aa 3c 24 5e 3a bd 6a 92 b0 3c
       0.029598344 0.020798642 -0.045499936 0.02155419
0001b0 5c 3d 6e 3d 9e 99 04 3d 44 46 44 bd b6 85 fa bc
       0.058163986 0.032373063 -0.047918573 -0.030581336
0001c0 32 de 0a 3d b9 17 03 3c 11 44 33 3d b0 69 21 3d
       0.03390331 0.008001261 0.043766085 0.039407432
0001d0 8c 39 fa ba 2a e9 f0 bc c5 86 25 bd 03 a8 20 3c
       -0.0019090637 -0.029408056 -0.04041173 0.009805682
0001e0 f1 5d d5 bc 11 64 30 bd 22 1d 3f bd 6e d3 5f 3d
       -0.026045771 -0.04306418 -0.046658643 0.054644994
0001f0 ff 39 38 bc c5 d0 e5 bc 1a 71 02 bd 27 78 c5 3c
       -0.011244296 -0.02805365 -0.031846143 0.024105145
000200 7d 48 8a 3d 80 2e e6 bc c9 1c b5 3c 6d 29 be 3c
       0.06752107 -0.028098345 0.022108452 0.023213113
000210 6e 47 ba 3c 83 35 35 3d 60 ba f9 3c 36 6b 1e 3c
       0.022739138 0.044240486 0.030484378 0.009669116
000220 62 5e 31 3d c7 86 94 bc 75 07 66 3c 2b 40 3d 3c
       0.0433029 -0.018130673 0.014039864 0.011550943
000230 1e a2 c4 b9 95 89 ca bb c8 63 56 bd 9f 1f 94 3b
       -0.0003750482 -0.006180952 -0.052341253 0.004520371
000240 29 d6 1e 3d 97 e8 8f 3d 5b ff 38 bc 5f 89 29 bc
       0.038778458 0.07026785 -0.01129135 -0.010347693
000250 7e d6 02 3d 65 63 f1 3a 5a 98 f9 3c 07 bf ba bc
       0.031942837 0.0018416463 0.030468155 -0.022796167
000260 25 d6 56 3c bc 13 94 3d 95 ca 92 3d b8 08 31 bd
       0.0131125795 0.072303265 0.07167546 -0.043221205
000270 bb 3c 41 3d 33 89 24 bc 06 d2 b1 39 e9 5d 26 bc
       0.047177058 -0.0100424765 0.0003391655 -0.010154226
000280 31 c2 5e bc 59 19 02 bc 5a 7e df bc 42 6f 5a 3d
       -0.0135961035 -0.007940614 -0.027281929 0.05332876
000290 96 5e e0 3c 5e 9c 2f 3d 3f 3d 72 bc 3f 2e 37 bc
       0.027388852 0.042873733 -0.01478511 -0.0111804595
0002a0 f1 8e 05 3d dd 9c d2 3c b6 95 95 3c 64 c6 23 3c
       0.032607023 0.025709564 0.018259864 0.0099960305
0002b0 3d 66 c7 3b 32 8c 8b bc 5f c1 8c 3b 2a 46 e2 3c
       0.006085186 -0.017034624 0.0042955126 0.027621347
0002c0 21 00 bc bc ad f0 80 bd a3 f4 14 3d 25 6a f6 bc
       -0.02294928 -0.06295905 0.036366116 -0.03007991
0002d0 a5 68 90 3b 8c d2 8e 3c cd f8 fb ba d1 90 75 bb
       0.004407006 0.017434381 -0.0019223929 -0.003747035
0002e0 1f 64 eb bc 70 77 64 3c d0 a4 c5 bc 1f e2 36 3d
       -0.028734265 0.013944492 -0.02412644 0.04464924
0002f0 04 4c 90 3b 96 94 f4 bb b4 2e db ba 6b f8 3b bc
       0.004403593 -0.007464002 -0.0016722293 -0.011472802
000300 1f 1f 24 bd 55 e4 5a 3c 92 0c a5 3a 36 e5 ca 3b
       -0.040068742 0.013360103 0.0012592247 0.006191875
000310 3c e2 ad bc 0c a3 20 3d 5e e3 5c bc c4 a6 1b 3d
       -0.021226041 0.039217994 -0.013481943 0.038000837
000320 fc b5 b3 3d 6c fd 1e 3d a5 84 8e 3c c7 c1 9d 3c
       0.08774945 0.0388159 0.017397234 0.01925744
000330 46 ac 32 3d 85 42 26 3c 0f 24 1d 3d 27 b4 26 bd
       0.043621324 0.010147695 0.038364466 -0.04069915
000340 30 34 d5 3d c7 6f a6 bc 81 f0 71 3d 98 97 64 3d
       0.104103446 -0.020316971 0.059067253 0.055808634
000350 90 75 9c 3c f6 65 d2 bc b8 6b 8f 3b 01 21 89 3d
       0.019099027 -0.025683384 0.0043768547 0.06695748
000360 c7 29 40 bc 9f 67 be bc 14 0c c3 3c f5 8d 41 bd
       -0.0117287105 -0.02324277 0.02380947 -0.04725452
000370 5b 6a 82 bc 92 55 b3 bc 2c e3 e4 3c 54 db 5a bc
       -0.015919855 -0.021891389 0.027940355 -0.013357956
000380 3a d8 73 bd c4 a8 e2 bb 07 37 6a 3d 9e e5 51 3d
       -0.05953238 -0.006917091 0.057181384 0.05124437
000390 ea 50 81 bc a6 38 0f bc 07 77 a5 3c 30 95 84 39
       -0.015785653 -0.008741533 0.020198358 0.00025288155
0003a0 ea 46 46 3d 6c 20 77 3b 62 12 4a 3d b6 ba 3f bc
       0.048407473 0.0037708534 0.049333937 -0.01170223
0003b0 8b 15 8b bb e7 a4 c6 3c fc 9a 46 bc 5d 20 4f 3c
       -0.0042445115 0.024248553 -0.012121912 0.012641993
0003c0 89 5b 12 3d 3a 20 8c 3d a5 b7 18 bd af a3 a2 bc
       0.035731826 0.06842084 -0.037284512 -0.019853441
0003d0 9a aa ba 3b 5e ea 61 38 6d f9 e9 3a 2f 7c 2a 3d
       0.005696607 5.386245e-05 0.0017850824 0.041622337
0003e0 eb 66 96 bc be 30 19 bd d7 9b 1f bd 53 e0 1a bd
       -0.018359622 -0.0374 -0.03896698 -0.03781159
0003f0 f9 67 4c bc f1 fd 2a 3d 80 86 0a bd f2 24 02 bd
       -0.012475961 0.041746084 -0.033819675 -0.031773515

net.9.weight f4 [64, 256]
000000 c6 88 31 bd ac 80 7b bd 73 5c b6 bc b2 e7 95 3c
       -0.043343328 -0.061402008 -0.02226088 0.018298957
000010 94 70 3e be c0 42 50 bd 9d 69 17 3e df 79 3b 3e
       -0.18597633 -0.050844908 0.14786382 0.18308209
000020 dc 8a eb bd e3 3f c6 3c 0c 91 a9 bd 18 cc b9 bd
       -0.11501095 0.024200385 -0.082796186 -0.09072131
000030 df 9b 0b 3e 7c e3 44 3d 49 67 fe bc d3 88 f0 3a
       0.13633679 0.04806851 -0.03105511 0.0018351324
000040 ba 8a f2 3d fc 84 a3 3d 1c a2 fa 3d b3 5e a6 3c
       0.11842866 0.07984349 0.12237951 0.020308828
000050 46 09 e3 3d 99 88 21 3e be ff 27 3e 24 61 94 3d
       0.11085753 0.15774764 0.16406152 0.072450906
000060 8f 35 73 bb 36 d9 14 bc c3 11 d4 bd dd 67 70 bd
       -0.003711078 -0.00908499 -0.1035495 -0.0586928
000070 1d 5b f8 bd c4 0b 07 3e 78 b2 fc 3a a9 24 2a be
       -0.121267535 0.13188082 0.0019279262 -0.16615547
000080 f0 c7 bd 3d ce 63 90 bc 59 63 f8 bd 0f 11 5b 3d
       0.09266651 -0.017625716 -0.12128324 0.053483065
000090 93 1a 9a 3d 4f 19 5e bd ce 6f e7 bd 40 2d dc bb
       0.075246 -0.054223355 -0.11300622 -0.0067192614
0000a0 63 a3 21 bd 8a 1a 1f 3d 5f 14 62 bd 2e 51 61 3e
       -0.03946246 0.03884367 -0.05519521 0.22003624
0000b0 94 c8 be 3d 0b 67 99 3d da 04 9e bd b2 91 fc 3c
       0.09315601 0.07490357 -0.07715769 0.030831192
0000c0 bc 8c 49 bc 6e c4 a4 3d ab 30 bb bd 89 4e f0 bd
       -0.01230162 0.080452785 -0.09140142 -0.117337294
0000d0 da 5e b5 bd f2 33 9d 3d 25 98 c8 3d 75 40 54 bc
       -0.08855982 0.076759234 0.09794644 -0.012954821
0000e0 de 23 60 bd 32 f8 41 bd 01 ef e6 3d d7 88 0e 3d
       -0.054721706 -0.047355838 0.11276055 0.03479847
0000f0 00 f8 f9 bd 0b 92 52 3d 55 13 5e 3d 06 a1 ae 3c
       -0.12205505 0.05140881 0.054217655 0.021317016
000100 d2 35 1a be b0 05 fa 3b f9 48 7c bc 5d 69 8d bd
       -0.15059593 0.0076300725 -0.015398257 -0.06904862
000110 1d 6f 32 bd 3b 7c 0b 3c c9 15 97 bd 6f 73 df bc
       -0.043562997 0.008513506 -0.07377202 -0.027276723
000120 64 a0 c0 bb f7 f2 04 3e 71 4c ad bd b0 e9 4e 3d
       -0.005878495 0.12983309 -0.08461846 0.05051583
000130 5d 03 dc 3c ef 1a 79 bd 95 5f 1a 3e 0a b2 f5 bd
       0.026857072 -0.0608167 0.15075524 -0.11996849
000140 27 3f 20 be 65 00 94 bd 2a 80 f9 3d ac 99 0c 3e
       -0.1564909 -0.07226638 0.121826485 0.13730496
000150 ca 94 17 3e e2 b7 18 be 80 f3 ec bd 50 3f 00 3e
       0.14802852 -0.14913896 -0.115698814 0.12524152
000160 0b 10 9d 3d 02 f1 f7 3c b9 f0 d8 bd b7 ce b6 bd
       0.076690756 0.030266289 -0.10592789 -0.089261465
000170 e2 25 03 be 1e 5d 0c 3e 49 8a 8a bd 6e b9 be bc
       -0.1280742 0.13707396 -0.06764657 -0.02328178
000180 26 d0 c3 3d b1 25 d0 3d d4 a0 57 3d 6b 57 0c be
       0.095611855 0.10163439 0.052643612 -0.13705222
000190 96 3e 8e 3d 79 0d 23 3d 38 e1 ea 3c 0a 47 fe 3d
       0.06945531 0.03980777 0.028671846 0.124158934
0001a0 86 f5 af 3c 77 32 ae 3d c3 9e 1d be 48 d4 09 be
       0.02147938 0.08505719 -0.15392594 -0.13459885
0001b0 01 1c 0d 3d 59 a1 b6 bc 70 60 23 3e 99 f0 7d 3c
       0.034450535 -0.022293733 0.15954757 0.0154992575
0001c0 a5 aa de 3d 99 f7 57 bd 49 cf c7 bd 1f c9 b7 3c
       0.108723916 -0.052726362 -0.097563334 0.02243477
0001d0 8f f4 cd 3a c3 3e 06 3e f6 bc 90 3d fa 8b fb bd
       0.0015713143 0.13109879 0.070672914 -0.12282558
0001e0 7a da f5 3c 75 78 a1 bc cd e7 28 bd 38 d9 af bd
       0.030011404 -0.019710759 -0.041236687 -0.08586353
0001f0 08 03 cf 3c 57 3d df bd c6 68 af bd c3 3d e1 bd
       0.02527 -0.109003715 -0.08564906 -0.10998108
000200 e8 9a 24 be 97 e1 18 bd ce fb 0f 3e ec eb dd 3c
       -0.16074717 -0.037324514 0.140609 0.027090035
000210 49 e0 25 3d 1e 6e c1 bc ce 5f 1e bd c2 32 a0 bd
       0.040497098 -0.023612078 -0.038665585 -0.07822181
000220 7b 24 ce 3b 84 65 eb bd 2c da d8 bc db 2d 3e bc
       0.00629097 -0.11493972 -0.02647122 -0.0116076125
000230 ec a1 9a 3d f1 fe 4d 3e a3 b2 be 3d 8b ce 46 3c
       0.075504154 0.20116784 0.09311416 0.012134205
000240 4e 68 0a 3e fc f4 ed 3d 2a d5 46 3d 52 66 4f bb
       0.13516352 0.11618993 0.048543133 -0.003164668
000250 a2 c9 ac bd fe f6 78 3d 10 0e 2a 3e ed 2e ed 3b
       -0.08436896 0.060782425 0.16606927 0.00723826
000260 30 51 d8 bd df 37 81 bd 20 25 c3 3d db fe 05 3e
       -0.1056236 -0.06309485 0.095285654 0.13085501
000270 b8 90 a4 bc 07 97 cf 3d 33 03 f0 3d 81 0b d3 bd
       -0.020088539 0.10136228 0.1171936 -0.103049286
000280 51 3f 7f 3d fe 3b 1a 3d 65 f9 03 be 8c 48 de 3b
       0.062316243 0.03765487 -0.12888105 0.0067835506
000290 e6 c1 81 3d db 02 47 3d 1f 41 f6 bc ab 46 20 3e
       0.06335811 0.048586708 -0.030060349 0.15651958
0002a0 cb 7d 46 bc c8 a0 d9 bd fa 90 b2 bd 1d 18 96 bd
       -0.012114952 -0.1062637 -0.08719058 -0.07328818
0002b0 e1 79 70 3e 3c 87 13 3e 9c c6 53 bd a4 0f a0 3d
       0.23483993 0.14407057 -0.05170308 0.07815483
0002c0 b4 0d ea bd 8f 20 5c 3d b4 e6 0d 3d 78 ec cf 3d
       -0.11428395 0.053741988 0.034643844 0.10152525
0002d0 3e 66 a2 bd 3e 8b 7f 3d 71 42 b9 3c f9 d5 26 be
       -0.079296574 0.06238865 0.02261469 -0.16292562
0002e0 f3 c3 1d 3e 2e 72 e2 bd 52 7b 76 3c e1 20 1c ba
       0.1540678 -0.11056934 0.01504405 -0.0005955827
0002f0 3d fe f4 3c c0 18 08 bc 81 3f b3 bd 27 63 55 bd
       0.029906387 -0.008306682 -0.08752347 -0.052096512
000300 d3 20 a7 3d a9 f6 1e 3d 3b ae aa bd 91 7c 01 3d
       0.081605576 0.038809452 -0.08334013 0.031612936
000310 01 3e 84 3d 06 2e f8 3d 0d cd 64 3d e4 d5 ee bc
       0.06457139 0.12118153 0.055859614 -0.029154725
000320 14 9f 27 bd a9 01 1b be ed 15 a8 3d 25 53 88 3c
       -0.040923193 -0.15137352 0.08207307 0.016641209
000330 4d 43 b6 3c 7d 0d d9 3d 48 df c6 3c 04 c9 35 bd
       0.022248888 0.10598276 0.02427639 -0.044381157
000340 8b 35 89 bd 98 13 ec bd fc d1 06 be 8d a0 7d 3d
       -0.06699666 -0.11527175 -0.1316604 0.06192069
000350 ce a2 5a 3c 2d 47 86 3d 49 92 0f be e4 0a c4 bd
       0.01334448 0.065565445 -0.14020647 -0.0957239
000360 73 27 f4 3d 37 92 ca 3d e3 d9 a0 bd b5 30 b9 3d
       0.11921587 0.098911695 -0.078540586 0.09042493
000370 37 8a cc bd 13 ac 07 b9 c9 c7 81 3c 6a 31 a0 bd
       -0.099873 -0.00012938706 0.015842335 -0.07821925
000380 60 4b 8e 3d a4 54 03 be fd 8d de bd 4a 8c d2 bc
       0.069479704 -0.12825257 -0.10866926 -0.02570166
000390 27 47 27 bd 2a ca 0e bb bf 5d 3b 3c 47 c0 a4 3d
       -0.04083934 -0.002178798 0.011435925 0.080444865
0003a0 a9 1d 2f be 70 02 9c 3d c5 5a 8e 3c be 5e dd 3d
       -0.17101158 0.076176524 0.017377267 0.10809086
0003b0 10 9d 8e bd 0c a8 a5 bd 13 10 c1 bc e7 e3 d5 3c
       -0.06963551 -0.08088693 -0.023567235 0.026109649
0003c0 cd a5 1c 3e 4f 2d 84 3d 34 17 06 3d 02 40 dc 3c
       0.15297623 0.064539544 0.032736972 0.02688599
0003d0 b8 b9 f0 3d b7 77 27 3e cc f0 5f 3d bd 6e 21 3c
       0.11754173 0.16354261 0.054673 0.009853062
0003e0 4e ba 72 bd 2e fa 04 be 0a bc 30 bd 7c 3d b4 bc
       -0.059259705 -0.12986061 -0.043148078 -0.022001974
0003f0 55 30 04 be bc 25 27 be bb f7 d9 bd 1a d2 fa bd
       -0.12909062 -0.16322988 -0.10642954 -0.12247105

net.9.bias f4 [64]
000000 5c 2d 7c 3d 82 c8 51 bd 46 d8 81 3d 77 51 0d bb
       0.061566696 -0.05121661 0.06340079 -0.002156345
000010 7d 0a aa 3d 34 47 2d 3d 1a 38 4e bc 18 b7 80 3d
       0.08302782 0.042304233 -0.012586618 0.06284922
000020 39 a0 4a 3d 46 36 24 3d 79 66 17 3d dc 40 9b 3d
       0.049469206 0.04009082 0.03696296 0.0758073
000030 77 fd 09 ba b9 2c 10 3e 8b 42 47 3d ec 3e 07 3b
       -0.00052639045 0.1407956 0.048647445 0.002063687
000040 3a b7 40 3d 38 5f a2 3c 6a 1a 8b bb 08 88 ea 3c
       0.04704974 0.019820794 -0.004245092 0.028629318
000050 48 79 f0 3c d4 5b 9a bd 33 7e 1e 3d 5d 93 df 3d
       0.029354706 -0.07537046 0.03869457 0.10916779
000060 1c 0c 04 3c 5a 90 9b 3d 09 53 49 bd 00 e8 cf bc
       0.008059528 0.07595892 -0.049151454 -0.02537918
000070 d2 30 d2 3c b4 f5 4e 3c 1a 7e 5e bd 57 2d 9d bc
       0.025658045 0.012631822 -0.05431948 -0.019186659
000080 40 dd f7 3d 3c 36 33 3d 64 6b 11 bd 1c 1b 5b bc
       0.12102747 0.043752894 -0.035502806 -0.013373163
000090 da 60 64 bd cb 1a 67 3c 7a a7 50 bd af ba 87 3d
       -0.055756427 0.014105509 -0.050940968 0.06627404
0000a0 7a ba 1e 3d 72 dc 0b 3e 4f 20 c2 ba 0e 66 7f 3d
       0.038752057 0.13658312 -0.0014810654 0.062353186
0000b0 b8 94 53 bd 38 6b b7 bd 57 6f 65 3b 81 8b 77 bb
       -0.0516555 -0.08955997 0.003500899 -0.003777236
0000c0 fc 0b 5b bd a7 5d 83 3d cc 78 4c 3d 41 1e b2 3d
       -0.053478226 0.06414347 0.04991989 0.08697177
0000d0 ce f7 04 3e a2 69 0c 3d a2 18 7a bd 9a f1 34 3b
       0.12985155 0.034280427 -0.061058648 0.0027609826
0000e0 db 51 c0 3d f8 24 99 3b 51 40 dd 3c 27 b0 71 3d
       0.09390613 0.0046735965 0.027008208 0.059005883
0000f0 2f 57 77 bd 97 29 43 3d 17 5e 01 bd 02 32 fe bc
       -0.06038588 0.047647085 -0.03158387 -0.031029705

net.11.weight f4 [10, 64]
000000 2e b3 13 be 31 84 7b bd ca 11 85 3e 09 4b 95 3c
       -0.1442382 -0.061405364 0.25990134 0.018224256
000010 04 ad f5 bc df 41 8c 3e 21 67 03 be fc a7 8e bc
       -0.029989727 0.27394006 -0.1283231 -0.017414086
000020 dd cd da 3d 86 7b 93 3e 3d 09 a9 be 6a 63 c4 be
       0.106837966 0.28805178 -0.3301486 -0.38357097
000030 e3 e7 53 3e 5c 95 0b 3f 4b 70 b6 be fc 79 af bd
       0.20693927 0.5452478 -0.35632548 -0.085681885
000040 b3 7a 9e 3e 84 5e 8d be a3 23 5b 3e 80 a5 59 be
       0.30952987 -0.27611172 0.21400313 -0.2125454
000050 d6 60 b4 bd c5 b8 a2 3e 03 52 03 be 9a 41 10 3e
       -0.088075325 0.31781593 -0.12824254 0.14087525
000060 4b e5 c4 3e 71 13 94 be 5b 2c 46 3e 3a fa ac be
       0.38456187 -0.28921083 0.19352858 -0.33784658
000070 c9 4f 4e be f3 e4 d1 bd 2d aa 4f 3e 20 d2 d3 bd
       -0.20147623 -0.10248747 0.2027976 -0.103428125
000080 95 c6 fa 3e 2b ec 8a bd 10 35 ba 3e 3f db ba be
       0.4897963 -0.06783327 0.36368608 -0.36495396
000090 02 bb 08 3e e2 a2 6a 3e da 9d af 3e 00 c7 89 be
       0.13352588 0.22913697 0.3430012 -0.26909637
0000a0 a6 41 2c be 5c 88 78 bc c0 2b e4 bd 9e 41 a6 3e
       -0.16821918 -0.015169229 -0.11141157 0.32471937
0000b0 41 6c ea 3d cf 3a b7 3c 12 11 28 3e f8 24 cc 3b
       0.11446429 0.02236691 0.16412762 0.006229993
0000c0 48 22 fa bb af 74 ad bd ea b5 94 bd 95 1a 86 be
       -0.007633481 -0.08469521 -0.0726126 -0.26192155
0000d0 29 6d a2 3e 79 d7 d3 be 51 a9 ba 3d 91 21 22 bd
       0.31723908 -0.4137533 0.09114326 -0.039582793
0000e0 07 72 93 3e f6 b2 1b be 8b 69 78 3e 8c 91 98 3e
       0.28797933 -0.15204987 0.24259011 0.29798543
0000f0 c5 d3 3f be 4e bf 78 be 0f 9f f2 bb f5 5e 90 be
       -0.18733127 -0.24291727 -0.007404215 -0.28197446
000100 ee 77 32 3e b5 d2 5e bd 83 4e fe 3e a9 42 7e 3e
       0.17428562 -0.054400165 0.49669275 0.24830116
000110 f4 75 09 be fb 48 5e 3e 7a 24 8d be f0 28 e4 3e
       -0.13423902 0.21707527 -0.27566892 0.44562483
000120 b1 a1 39 be 23 0e 10 be 90 f5 38 bd 09 08 8b be
       -0.18128087 -0.14067893 -0.04515606 -0.27154568
000130 70 8f 51 3e 50 19 1d 3e 34 14 bb be 13 ac 66 3e
       0.20464873 0.15341687 -0.3653885 0.22526579
000140 b3 ed a3 bd e2 38 12 be d9 f6 26 be 4e 57 7d bc
       -0.08004322 -0.14279512 -0.16305102 -0.01546271
000150 d1 68 74 3d 92 51 56 3e ec ba 45 3e af 60 91 3e
       0.059670273 0.20929554 0.19309586 0.28394076
000160 f9 95 40 be 49 5e cc bd 62 24 75 be da 13 ba be
       -0.1880721 -0.09978921 -0.2393966 -0.3634327
000170 59 f0 b5 bc b0 28 0e 3d cd 0c 3f bd ef 14 ef bd
       -0.022209333 0.03470677 -0.046643067 -0.11673915
000180 3d 27 e2 be 8d c3 e5 3c e0 5a 2b be d1 9d 07 3e
       -0.4417056 0.028047347 -0.16733885 0.13243796
000190 74 e5 c0 bc 5e f8 50 be 57 a6 8d be 09 30 97 bd
       -0.023546912 -0.20407245 -0.2766597 -0.07382209
0001a0 8f 7d f5 3d 01 c0 8f 3e 4b c3 17 3e 2c a1 c5 bd
       0.11986839 0.28076175 0.14820592 -0.09649882
0001b0 77 31 9c be bd 1f 7c be a2 db 29 be 33 95 20 be
       -0.3050649 -0.24621482 -0.1658769 -0.15681915
0001c0 de 32 66 3c 75 55 b0 bd aa 82 0f be 17 46 8a be
       0.014050214 -0.0861005 -0.14014688 -0.270066
0001d0 e3 30 92 be d9 ec b9 be 9d 2c f3 bc 73 17 a5 3d
       -0.28552923 -0.36313513 -0.02968436 0.08061113
0001e0 fc 54 d6 be 77 94 74 3e c8 46 35 be 18 64 85 be
       -0.41861713 0.2388476 -0.17702782 -0.26052928
0001f0 dd c1 31 3f a1 fa 1e be 82 59 8b bd 80 5f b7 3e
       0.69436437 -0.15525295 -0.06804182 0.35815048
000200 2b 7a 87 be 07 bc 3d 3e d6 e2 d1 3d 68 1a d5 3d
       -0.26460394 0.18528758 0.10248344 0.10405427
000210 cb c2 e0 be c5 a5 ee 3d 75 f5 f3 3d 33 e0 d9 3e
       -0.43898615 0.11652712 0.119120516 0.42553863
000220 7d c5 99 3e 47 ef 42 be 2d a3 3c 3d 7d b1 8c 3e
       0.30033484 -0.1903659 0.046054054 0.27479163
000230 e0 33 2f be 2d e8 87 3d 06 f5 a2 be 28 81 81 3d
       -0.17109632 0.06636081 -0.31827563 0.06323463
000240 89 5d 8d 3e 07 52 d7 be d5 53 02 3f b6 47 89 be
       0.27610424 -0.4205477 0.5090917 -0.26812524
000250 db a6 87 bd cb 2c b1 3d 59 c5 c4 be 17 3c b9 3e
       -0.06623622 0.08651122 -0.38431814 0.36178657
000260 fa 7b 14 bf fe 00 30 3d 16 3c 88 3e a4 ff 75 3e
       -0.58001673 0.042969696 0.26608342 0.240233
000270 b7 40 36 be 3b a3 de be 9e 8d a1 bd c4 f7 ad bd
       -0.17798124 -0.4348391 -0.078883395 -0.08494523
000280 fc 9d 0d bc 86 a5 6d 3e 29 6a 2c bd 78 43 0f 3e
       -0.008643623 0.23207673 -0.04209343 0.13990581
000290 48 65 f7 be 9e f2 a1 3e ec 45 6b 3d c5 db 14 bc
       -0.4831946 0.31630415 0.05743973 -0.0090856
0002a0 c7 25 94 3d c1 ea 4d 3e a4 5d 9a be 09 1c f2 3d
       0.07233768 0.20109083 -0.30149567 0.118217535
0002b0 5d 76 83 be df 85 26 3d 6c 86 6d be 97 75 d1 3d
       -0.25676242 0.040655013 -0.23195809 0.102275066
0002c0 6a ea a1 bd ca 45 57 be c1 c1 ab 3e 83 4e 53 3e
       -0.07906039 -0.21022716 0.3354626 0.20635419
0002d0 cf 62 73 3e 50 0d 93 3e 55 f1 65 be 47 b5 b6 bb
       0.23768161 0.28721094 -0.22455342 -0.005575809
0002e0 44 02 da 3e f4 da 36 be 8e 31 d1 bd 17 64 dc 3d
       0.42579854 -0.17856961 -0.1021453 0.10761278
0002f0 c5 ca 9a be c2 52 87 3d d5 98 b8 3e 8b 77 63 3d
       -0.30232826 0.06607582 0.36054102 0.055533927
000300 74 03 e7 3d cc 84 9f bd 4f a7 a2 be 81 e9 5f be
       0.112799555 -0.07789001 -0.3176827 -0.21866418
000310 68 63 63 be 95 c6 b6 be 56 65 07 be fe 79 c6 3d
       -0.22205889 -0.3569838 -0.1322225 0.09691237
000320 5c f6 09 bf fb e1 cf 3d d6 01 44 be cd bd 36 be
       -0.5389154 0.10150524 -0.19141325 -0.17845841
000330 28 07 15 3a 3a 16 20 bd 7f 10 e7 bc 42 46 5c 3c
       0.0005684965 -0.039083697 -0.028206108 0.013444485
000340 12 bb b2 be b7 b9 cd bd e2 36 f0 3b 78 c6 4f be
       -0.34908348 -0.10045188 0.0073307613 -0.20290554
000350 ff 3a c7 bb 00 57 40 be ff 97 86 bd 2b b7 9b be
       -0.006080031 -0.18783188 -0.0657196 -0.30413184
000360 a7 9f 44 3e a8 42 88 be 0c a3 4d 3e 42 b9 a5 3e
       0.19201528 -0.26613355 0.20081729 0.32367903
000370 b3 ff 66 3e 0b dc b4 be 2e bb a0 be 52 4f 5b 3c
       0.22558479 -0.3532413 -0.31392807 0.013385611
000380 fb db f6 3d 32 68 a1 bd 34 e8 6c be a1 e0 cf be
       0.12053677 -0.07881202 -0.23135453 -0.40601066
000390 9b 4b 29 3e 30 da a2 3e db 45 b6 bc 90 9d bd bb
       0.16532747 0.3180709 -0.022250107 -0.005786605
0003a0 61 31 e7 3d 6a f1 b3 be a5 01 7c 3e ad 83 7d bc
       0.11288715 -0.35145122 0.24610002 -0.0154732885
0003b0 cc 79 75 3e fe e8 81 3e 4e fd 36 be df 2f 1b bd
       0.23972243 0.2537307 -0.17870066 -0.03788745
0003c0 6b bb fe 3d bb 13 00 3e 6a e8 b0 3d c0 d6 10 3f
       0.12438091 0.12507527 0.086380795 0.5657768
0003d0 98 c8 66 3e 91 2d 82 3e f1 55 e3 3d 5e 2a 0d be
       0.22537458 0.2542539 0.111003764 -0.13785693
0003e0 d5 50 6c 3e 02 19 38 3e eb 2c 40 bd f2 36 ce be
       0.2307771 0.1797829 -0.046917837 -0.40276295
0003f0 26 d9 e3 3e 59 cc a2 3e d0 e1 3c 3e ab f4 c4 3e
       0.4450161 0.3179653 0.18445516 0.38467917

net.11.bias f4 [10]
000000 8f 2b 30 bd 77 30 c3 bd 35 1d 41 3e 15 8e b4 3d
       -0.04301029 -0.09530728 0.18858798 0.088161625
000010 42 ea 08 be 1c fd 0d bd 18 34 a9 3e 2d 2f f7 3b
       -0.13370612 -0.034665212 0.33047557 0.0075434656
000020 70 ad 94 3d ce 5f 16 be
       0.07259643 -0.14684984
